GAN/generator.pth (torch, 994268 bytes, 6 tensors)

weight f4 [128, 100]
0	0x3ccbcb40	0.02487719
1	0x3db94ad1	0.09047473
2	0xbdba6ca9	-0.091027565
3	0x3b3bbd75	0.002864686
4	0xbd87cbdc	-0.0663068
5	0x3dad05c5	0.08448366
6	0x3dbc8891	0.092057355
7	0xbc9b4a2c	-0.018956266
8	0x3a388e9d	0.0007040294
9	0x3d7bf452	0.0615123
10	0x3a69a951	0.0008913475
11	0x3e29f5c4	0.16597658
12	0x3d4c0f8a	0.049819507
13	0xbdc0d68a	-0.0941592
14	0x3ddde92d	0.108354904
15	0xbd8f9fa6	-0.070128724
16	0x3c9102b6	0.017701488
17	0x3d8bc1d3	0.068240784
18	0x3ce6891e	0.028141554
19	0x3afa7ebc	0.0019111256
20	0xbc41adea	-0.0118212495
21	0x3d0c644a	0.03427533
22	0xbe014214	-0.12622863
23	0xbdc03d54	-0.093866974
24	0xbcdcf702	-0.026973251
25	0x3dcfc234	0.10144463
26	0xbdcd3ee3	-0.1002176
27	0xbe6a7003	-0.22894292
28	0xbd9c627e	-0.076359734
29	0xbd1c0560	-0.038091063
30	0x3dd4d616	0.10392396
31	0xbd951681	-0.07279683
32	0xbd301f88	-0.04299882
33	0x3caae8da	0.020862985
34	0xbe14ca00	-0.14530182
35	0xbd442df7	-0.047895398
36	0x3c3c50ba	0.011493856
37	0x3bc26b61	0.0059332107
38	0xbc905a21	-0.017621102
39	0xbd77d840	-0.060508966
40	0xbba0bdc5	-0.004905435
41	0xbdbe25aa	-0.092845276
42	0x3d9aaaae	0.07552086
43	0xbdc24474	-0.09485713
44	0xbccf7191	-0.025322707
45	0x3cba1f10	0.02271989
46	0xbcce5747	-0.025188101
47	0xbd4712bd	-0.048601855
48	0xbe28618c	-0.16443461
49	0x3d0dab7c	0.03458737
50	0x3daebd94	0.08532253
51	0xbd8b3a75	-0.06798259
52	0xbda936fb	-0.0826244
53	0xbd88ec1b	-0.066856585
54	0x3c43b25b	0.011944379
55	0x3d5fd9ee	0.054651193
56	0xbd579b12	-0.05263812
57	0xbe011dee	-0.12609074
58	0xbe001443	-0.12507729
59	0x3d8ec3dc	0.06970951
60	0x3c97a4b3	0.018511152
61	0x3cb90753	0.0225865
62	0xbdcac89f	-0.09901547
63	0x3dfcad62	0.12337758
64	0x3d68e7e1	0.056861762
65	0x3d29807e	0.041382305
66	0xba1577b4	-0.0005701736
67	0x3cc2b01d	0.023765618
68	0x3cc97a13	0.024594342
69	0x3d87c861	0.06630016
70	0xbdfc9227	-0.12332564
71	0xbdae6758	-0.08515805
72	0xbe5c80ba	-0.2153348
73	0x3cf1c180	0.029511213
74	0xbcdf038d	-0.027223373
75	0x3cc0d362	0.023538295
76	0x3e0a6e2d	0.13518591
77	0x3d16346f	0.0366711
78	0x3d83a0b8	0.06427139
79	0xbcd31b51	-0.025769861
80	0xbe239e88	-0.15978444
81	0x3d9af96d	0.075671054
82	0xbd207cb3	-0.039181422
83	0x3d5c617c	0.053803906
84	0x3c65c575	0.014024128
85	0x3c56de4a	0.013114521
86	0x3d8335cd	0.06406746
87	0xbcca1df0	-0.024672478
88	0xbe489072	-0.19586352
89	0x3bddb782	0.0067662606
90	0xbc2fdf94	-0.0107344575
91	0xbd0dbfa6	-0.0346066
92	0xbd1df984	-0.038568035
93	0xbe1f1e7f	-0.15538977
94	0x3d1a102e	0.037613086
95	0xbd93bc3f	-0.072136395
96	0x3dd1cf09	0.10244567
97	0xbdfc5213	-0.12320342
98	0x3cd4529c	0.025918297
99	0x3dc457a9	0.09587032
100	0xbd2c883e	-0.04212212
101	0x3d8b4348	0.06799942
102	0xbcab4f6f	-0.0209119
103	0xbdb1db67	-0.08684426
104	0xbd93ced3	-0.07217183
105	0x3da3ae82	0.07992269
106	0x3cf9cee2	0.030494157
107	0x3d850a76	0.06496136
108	0xbc9fe4d1	-0.019518288
109	0x3d27a546	0.0409291
110	0x3a4d2d3e	0.0007826871
111	0x3c8b99d9	0.017041134
112	0x3d876fcc	0.066131204
113	0x3d2bd0ad	0.041947056
114	0xbdf8da6f	-0.12151038
115	0xbe7c1d95	-0.2462066
116	0xbceb6da3	-0.028738802
117	0xbd263a2a	-0.040582813
118	0xbdfa9021	-0.12234522
119	0x3de27912	0.110582486
120	0xbd840da1	-0.06447912
121	0x3cfe8271	0.031068059
122	0xbdd8def4	-0.105894
123	0xbb44a0e4	-0.0030003125
124	0x3e09f786	0.13473329
125	0x3dd72a2e	0.10506092
126	0xbe11afa3	-0.14227156
127	0x3d756f29	0.059920464
128	0x3e09c367	0.13453446
129	0xbe0c12df	-0.13679074
130	0xbdc4bf46	-0.09606795
131	0xbdd7cbaf	-0.105368964
132	0x3d081a9b	0.033228498
133	0xbc15b0ad	-0.009136361
134	0xbe3dc594	-0.18532401
135	0xbd9f89b0	-0.07789934
136	0xbdd61bf9	-0.10454554
137	0xbc0264b4	-0.00795858
138	0xbe2d4b44	-0.16923243
139	0xbe2498e7	-0.16073953
140	0x3d412c7c	0.047161564
141	0x3d369c1f	0.044582482
142	0xbcae26dc	-0.021258764
143	0xbdee5579	-0.11637396
144	0x3da185fa	0.07886882
145	0x3ce598b1	0.02802691
146	0x3e72ad50	0.23698926
147	0xbe228c82	-0.15873912
148	0x3d0f970c	0.03505616
149	0x3d680004	0.05664064
150	0xbd9fbe6a	-0.077999905
151	0x3d681aa4	0.05666603
152	0x3da929c1	0.08259917
153	0xbdf2779f	-0.11839222
154	0x3dc1dfff	0.09466552
155	0xbdc3140f	-0.0952531
156	0x3ca1af6c	0.019736968
157	0x3cee29b2	0.029072616
158	0xbdb23066	-0.087006375
159	0xbda3303c	-0.07968184
160	0xbe59319e	-0.21210334
161	0xbbdaf7b4	-0.0066823605
162	0x3e00ba57	0.12571083
163	0x3df776b8	0.12083191
164	0x3ccadf6b	0.024764737
165	0x3dc745cf	0.09730112
166	0xbeb55d9d	-0.35422984
167	0xbdf035b6	-0.117289945
168	0x3d1a48d5	0.037667114
169	0x3d86915c	0.06570694
170	0xbdc83c66	-0.09777145
171	0x3ce83bdd	0.028348858
172	0x3d4e9805	0.050437946
173	0x3d0d7486	0.034534954
174	0xbc735f4e	-0.014854265
175	0xbde22786	-0.11042695
176	0x3e2161eb	0.15760009
177	0xbdaf7e00	-0.085689545
178	0xbdaff81b	-0.08592244
179	0xbe189ee2	-0.14904359
180	0xbdf987cd	-0.12184105
181	0x3e489d49	0.1959125
182	0xbd4542fa	-0.048159577
183	0xbc9735ec	-0.01845833
184	0xbdd45f06	-0.10369687
185	0x39a7c531	0.0003199964
186	0xbdbc1a8b	-0.0918475
187	0x3de03c82	0.10949041
188	0xbd4b85cc	-0.049688146
189	0xbd2041b8	-0.039125174
190	0x3dd8d930	0.105883
191	0xbcd2f98a	-0.025753755
192	0xbdd4a69f	-0.10383343
193	0x3e8d5874	0.27606547
194	0x3dd6c9b0	0.104876876
195	0x3e023f32	0.1271942
196	0x3e8aa1d6	0.27076596
197	0x3de79029	0.11306793
198	0x3c5b1ac9	0.013373085
199	0xbdd62ff4	-0.10458365
200	0xbcedf879	-0.029049145
201	0xbd8ec61f	-0.06971382
202	0xbd25ca98	-0.04047641
203	0xbdbfcdc7	-0.09365421
204	0x3b720332	0.0036928174
205	0xbd4fa0ef	-0.050690588
206	0xbddedb76	-0.108817026
207	0x3b503954	0.0031772451
208	0xbd857e8a	-0.06518276
209	0x3d4bb38a	0.04973177
210	0xbd51e3f1	-0.051242772
211	0xbc15a591	-0.009133712
212	0xbd04f024	-0.03245558
213	0x3e5e6608	0.2171861
214	0x3d1c8bbd	0.038219202
215	0xbe433aeb	-0.19065444
216	0x3e287b50	0.1645329
217	0x3ccab366	0.024743747
218	0x3d5fa4dc	0.05460058
219	0x3b0fee49	0.0021962097
220	0xbd0a3eb1	-0.033751193
221	0xbd8e1dd9	-0.06939287
222	0xbe043fba	-0.12914935
223	0x3ddc1351	0.10745872
224	0xbb087e81	-0.0020827355
225	0xbd3617f2	-0.04445643
226	0xbd620270	-0.055178106
227	0xbbdaafeb	-0.006673803
228	0xbcd46a34	-0.025929548
229	0xbdee386f	-0.116318576
230	0xbd431ae5	-0.04763307
231	0xbe18107d	-0.1485004
232	0x3c97293d	0.018452281
233	0x3cc8f0e6	0.024528932
234	0x3dfe6d4f	0.12423193
235	0xbd2d3624	-0.04228796
236	0x3e11f6e7	0.14254342
237	0x3c5ecc18	0.013598464
238	0x3ccfcc0b	0.02536585
239	0xbc77c272	-0.015122043
240	0x3dd0303b	0.10165449
241	0x3cc7ba82	0.024380926
242	0xbdd8270c	-0.105543226
243	0x3d1e6dcf	0.03867894
244	0xbe0c300f	-0.13690208
245	0x3dc62016	0.09674089
246	0xbd33a5b4	-0.0438592
247	0xbcfc94c9	-0.030832665
248	0xbdcb6586	-0.099314734
249	0xbac4efa3	-0.0015025031
250	0xbdce81a5	-0.100833215
251	0xbe2de283	-0.16980939
252	0xbd6bb916	-0.05754956
253	0x3c9eba9d	0.019376094
254	0x3d3553f5	0.04426952
255	0xbdb0919c	-0.08621523

bias f4 [128]
0	0xbe0a6fa3	-0.13519149
1	0xbcc608f4	-0.024174191
2	0xbeab4427	-0.33450434
3	0xbf50e2b9	-0.8159595
4	0xbebfa9b3	-0.37434158
5	0xbe51ebf1	-0.20500161
6	0xbdc20c9b	-0.094750606
7	0xbeb39d43	-0.3508092
8	0xbe98084a	-0.29693824
9	0xbda888b9	-0.08229203
10	0xbe5e910f	-0.21735023
11	0xbe12e776	-0.14346108
12	0xbe405054	-0.18780643
13	0xbe5028ef	-0.20328115
14	0xbed6178f	-0.4181485
15	0xbde88957	-0.113543205
16	0xbea2d9b5	-0.31806722
17	0xbd11c8e0	-0.03559196
18	0xbd9659a8	-0.07341319
19	0xbe1ff523	-0.15620856
20	0xbebe429c	-0.37160194
21	0x3e5f8115	0.21826585
22	0x3ca9fe3b	0.02075111
23	0xbeca9dcc	-0.39573514
24	0xbe7f0b70	-0.24906707
25	0xbd13259a	-0.03592453
26	0xbee5427a	-0.4477728
27	0x3e22c797	0.1589645
28	0xbe3a6a2d	-0.18204565
29	0xbe920af7	-0.2852399
30	0xbe95a52d	-0.29227582
31	0xbed20ad5	-0.4102389
32	0xbe149eaf	-0.14513658
33	0xbb9e86c0	-0.004837841
34	0xbecfc4be	-0.4057979
35	0xbdd96796	-0.106154606
36	0xbd391c96	-0.045193277
37	0xbe4696d3	-0.19393472
38	0xbc0080fc	-0.007843252
39	0x3e18f199	0.14935912
40	0xbe76b50d	-0.24092503
41	0xbe71c654	-0.23610812
42	0xbe07d3ae	-0.13264343
43	0x3ac0556f	0.0014673899
44	0xbe803826	-0.25042838
45	0xbee20775	-0.44146314
46	0x3dad8316	0.08472268
47	0xbeb78224	-0.35841477
48	0xbea58450	-0.3232751
49	0xbee79263	-0.45228872
50	0xbed7415f	-0.42042062
51	0x3e3d318b	0.1847593
52	0xbdf946f6	-0.12171738
53	0xbe6f3b8f	-0.23362564
54	0xbe1c719e	-0.15277717
55	0x3dd3ba1d	0.10338233
56	0xbe85df7f	-0.26147076
57	0xbea91c06	-0.33029193
58	0x3e4370c7	0.1908599
59	0xbece1d17	-0.4025657
60	0xbea3cfa6	-0.3199436
61	0xbe83d5cb	-0.2574905
62	0xbe4ec2f3	-0.20191555
63	0x3c9e70d9	0.01934092
64	0xbf0024e7	-0.5005631
65	0x3d493a9b	0.049128156
66	0xbe8c8ca6	-0.27451056
67	0xbe83a7c3	-0.2571393
68	0xbdf53ad0	-0.11974108
69	0xbe6cbf1a	-0.23119774
70	0xbe495764	-0.19662243
71	0x3af9d7f6	0.0019061554
72	0x3d56a4ee	0.052403383
73	0xbe319d8b	-0.17345254
74	0xbe9a57a6	-0.30144995
75	0x3d104da1	0.035230283
76	0xbec99efd	-0.3937911
77	0xbed1feff	-0.4101486
78	0xbe9e2b53	-0.3089243
79	0xbe5a811d	-0.21338315
80	0xbed8052a	-0.4219144
81	0xbe815d4c	-0.25266492
82	0xbc8595d8	-0.016306803
83	0xbe18d5f9	-0.14925374
84	0xbdd6148e	-0.10453139
85	0x3ee2240e	0.44168133
86	0xbe04929c	-0.12946552
87	0xbec2dbb5	-0.38058248
88	0xbea56079	-0.32300165
89	0xbd960de7	-0.073268704
90	0xbd5ec6f8	-0.05438897
91	0xbe3eaae5	-0.18619879
92	0xbe1231f2	-0.14276865
93	0xbe7dd7d9	-0.2478937
94	0xbe75d8f4	-0.24008542
95	0xbe951d0d	-0.29123726
96	0xbe7eab94	-0.2487014
97	0xbe6757d2	-0.22592095
98	0xbdb9b185	-0.09067062
99	0x3e056d66	0.13030013
100	0xbe18fcd1	-0.14940192
101	0xbc83aeb8	-0.016074523
102	0xbe3c26a8	-0.18374121
103	0x3eb90980	0.3614006
104	0xbeb75823	-0.3580943
105	0x3c3527d6	0.011056861
106	0xbd303600	-0.04302025
107	0xbeaf21e1	-0.34205535
108	0xbe5d7b68	-0.21629107
109	0xbcb865aa	-0.022509415
110	0xbecbd417	-0.3981025
111	0xbe81c1db	-0.25343212
112	0xbb1aede5	-0.0023640331
113	0xbecff496	-0.40616292
114	0xbe35ad98	-0.17742002
115	0xbe777fba	-0.24169818
116	0xbe960799	-0.29302672
117	0xbedc4320	-0.43019962
118	0xbf37c7d1	-0.7178927
119	0xbe152763	-0.14565806
120	0xbcd58024	-0.026062079
121	0x3dad26c6	0.08454661
122	0xbe152108	-0.14563382
123	0x3d3bba6e	0.04583209
124	0xbd5e9028	-0.054336697
125	0xbe73205c	-0.23742813
126	0xbe9c9c80	-0.3058815
127	0xbe9a4422	-0.30130106

weight f4 [256, 128]
0	0x3d944dd1	0.07241405
1	0x3bbaaffa	0.0056972476
2	0xbdd1d45f	-0.10245585
3	0xbd278b79	-0.040904496
4	0x3d7f1edc	0.06228529
5	0xbdb032a2	-0.086034074
6	0xbd072c1e	-0.033001058
7	0xbd8d9ebe	-0.06915043
8	0x3dbab678	0.091168344
9	0xbc79cb12	-0.01524617
10	0xbdca3e62	-0.0987518
11	0x3d1d2867	0.03836861
12	0x3d50eae0	0.051005244
13	0x3d016154	0.03158696
14	0xbda0240f	-0.07819378
15	0x3dd86085	0.10565285
16	0xbdce6959	-0.10078687
17	0x3cd8ba73	0.026456093
18	0xbdfc725d	-0.123265006
19	0xbc9571a1	-0.018242659
20	0xbdb0b809	-0.08628852
21	0x3c623bad	0.013808173
22	0xbe2172fa	-0.15766516
23	0x3ca892ed	0.020577872
24	0x3d6d613b	0.057954054
25	0x3c2291fd	0.009922502
26	0xbbc43d07	-0.0059887203
27	0x3d203cb6	0.0391204
28	0x3d962400	0.07331085
29	0x3cd4c1c7	0.025971306
30	0xbda3d2d5	-0.079991974
31	0xbc5e1c79	-0.013556593
32	0xbe801303	-0.25014505
33	0xbe03227e	-0.12806126
34	0xbd07688d	-0.03305869
35	0xbde71deb	-0.11285003
36	0xbdc2a039	-0.09503216
37	0x3c0cb9d0	0.008589223
38	0xbdcba3c7	-0.099433474
39	0x3defdb4d	0.1171175
40	0xbca635c1	-0.020289304
41	0x3c346bf1	0.011012063
42	0xbd9af5e0	-0.07566428
43	0xbd8a47ac	-0.067519516
44	0x3a38dcc1	0.0007051938
45	0xbdee33f4	-0.11631003
46	0xbd4d8f62	-0.05018557
47	0x3d62cb03	0.05536939
48	0xbbee8df0	-0.007280104
49	0x3d5bed65	0.053693194
50	0xbe10dbd1	-0.14146353
51	0x3b67447a	0.0035288618
52	0x3d2bc126	0.041932248
53	0x3debc509	0.11512191
54	0xbd926f17	-0.07150095
55	0x3cadd345	0.021218905
56	0x3c36e6c1	0.011163414
57	0x3ce15ee8	0.027511075
58	0xbe337a07	-0.17527018
59	0xbcd34c0c	-0.025793098
60	0xbd6f9371	-0.05849022
61	0x3c5e3d85	0.013564472
62	0xbdb92e94	-0.09042087
63	0xbcada633	-0.021197414
64	0xbd11a028	-0.035553128
65	0x3d18700d	0.037216235
66	0xbd234f26	-0.039870404
67	0xbd787b3b	-0.060664397
68	0x3bd5dd64	0.006526636
69	0xbe2378f9	-0.15964116
70	0xbca90a48	-0.020634785
71	0xbaea0431	-0.0017854032
72	0x3df061d7	0.117374115
73	0x3e200a79	0.15628995
74	0xbe0da75f	-0.13833378
75	0xbc1b4301	-0.009476424
76	0xbceb0aa7	-0.028691603
77	0xbdc99391	-0.09842599
78	0xbc0b57e0	-0.008504838
79	0xbd0d3e28	-0.034483105
80	0x3afa3f60	0.0019092374
81	0x3e1c0faf	0.15240358
82	0xbce905cf	-0.028445153
83	0x3b2e0b2b	0.002655695
84	0xbc54b884	-0.012983445
85	0xbd778511	-0.060429636
86	0xbe05656e	-0.13026974
87	0x3b15f63c	0.0022882363
88	0xbdef1f27	-0.11675864
89	0xbd32fd23	-0.04369844
90	0x3d2fae99	0.04289112
91	0xbd21d19e	-0.039506547
92	0xbda69ab8	-0.08134979
93	0x3ccde582	0.025133852
94	0xbdfe85b9	-0.12427849
95	0x3cc30a8f	0.023808746
96	0xbdb9b663	-0.09067991
97	0xbd0a568a	-0.033773936
98	0xbdd544b4	-0.10413495
99	0x3dab5b1d	0.08366988
100	0xbe0bc151	-0.13647963
101	0x3d343cff	0.044003483
102	0xbe0aff7d	-0.13574024
103	0x3cfba720	0.03071934
104	0x3c271c6e	0.010199649
105	0xbd8743b9	-0.06604714
106	0xbd960abe	-0.07326268
107	0x3caa1c2b	0.020765385
108	0x3c82f69c	0.015986733
109	0x3d8664fe	0.065622315
110	0x3d116c04	0.035503402
111	0x3c503d90	0.01270999
112	0x3d0f3fee	0.034973077
113	0x3de58c35	0.11208383
114	0x3d8fbb5c	0.07018158
115	0x3c006946	0.007837599
116	0x3b124dca	0.0022324198
117	0xbddffe83	-0.10937216
118	0xbdd67d26	-0.10473089
119	0xbd48960a	-0.048971213
120	0x3dfae147	0.122499995
121	0xbe0d364e	-0.13790247
122	0xbbf76235	-0.007549549
123	0xbd83b5ba	-0.06431146
124	0xbdacbe64	-0.08434752
125	0xbd154529	-0.03644291
126	0x3d670933	0.056405257
127	0xbdcd5d66	-0.1002758
128	0x3d95c5a8	0.073130906
129	0xbdb30db1	-0.08742846
130	0xbdeee7bd	-0.11665294
131	0x3e3e853c	0.18605512
132	0xbf1d60f3	-0.6147606
133	0xbe95598c	-0.2916988
134	0xbe32cb10	-0.17460275
135	0x3eb7c78c	0.3589443
136	0xbe698167	-0.2280327
137	0xbebca0e2	-0.36841494
138	0xbe95ca3c	-0.29255855
139	0xbe938296	-0.28810567
140	0xbfca97c1	-1.5827562
141	0x3ed91880	0.42401505
142	0xbef45ebc	-0.47728527
143	0xbf550d50	-0.8322344
144	0x3d00d59d	0.031453717
145	0xbe92806e	-0.2861361
146	0x3d1edf52	0.038787194
147	0xbe26ae34	-0.1627739
148	0x3e2f480a	0.17117324
149	0x3e6dd26f	0.23224805
150	0xbf267678	-0.6502452
151	0xbd3627a1	-0.044471387
152	0xbdf212cf	-0.11819994
153	0x3e2904b5	0.16505702
154	0xbe94b7f3	-0.29046592
155	0xbf193218	-0.5984206
156	0xbde762c7	-0.11298137
157	0xbd70aa2f	-0.05875605
158	0xbca5fd3e	-0.020262357
159	0xbed9cf95	-0.42541185
160	0xbdde7b3e	-0.1086335
161	0xbde6a187	-0.11261278
162	0xbe86cc8e	-0.26327938
163	0xbbe395dd	-0.0069453553
164	0x3e20af50	0.15691876
165	0xbc0c4247	-0.008560724
166	0xbd9c78e2	-0.07640244
167	0xbe88b025	-0.26696888
168	0x3db70feb	0.08938583
169	0xbe7cea25	-0.24698694
170	0xbe9be4c7	-0.3044798
171	0x3d7e24a1	0.06204665
172	0x3d801725	0.062544145
173	0x3ed4609b	0.41479954
174	0x3ecb2a48	0.39680696
175	0xbed255a5	-0.41080967
176	0xbe75e3a1	-0.24012615
177	0xbcfe01fc	-0.031006806
178	0xbe615499	-0.22004928
179	0xbd7e067b	-0.0620179
180	0xbea931ab	-0.33045706
181	0xbe01263b	-0.1261224
182	0x3e5da7d8	0.21646059
183	0xbe2d5358	-0.16926324
184	0xbe28225a	-0.16419354
185	0xbda92666	-0.08259277
186	0x3ee63217	0.4496009
187	0xbf05de84	-0.52292657
188	0xbe15b9be	-0.14621636
189	0xbe014065	-0.12622221
190	0xbdd14b88	-0.102194846
191	0x3e65cf22	0.22442296
192	0x3e1c7c66	0.15281829
193	0xbd491de8	-0.049100786
194	0xbee446b0	-0.4458518
195	0xbdcf3d85	-0.10119156
196	0xbe906967	-0.28205416
197	0xbe4a727f	-0.1977024
198	0xbec971b7	-0.3934457
199	0xbcfae10e	-0.030624893
200	0xbf100dda	-0.56271136
201	0x3e11b2d6	0.14228377
202	0xbe48fffd	-0.19628902
203	0x3e409396	0.188063
204	0xbdd602cb	-0.104497515
205	0xbe91c38e	-0.2846951
206	0xbe818176	-0.25294083
207	0x3d791cc9	0.060818467
208	0x3d7b4d42	0.061352976
209	0xbc1f69d2	-0.009729819
210	0x3e41a115	0.18909104
211	0xbe455878	-0.1927203
212	0xbe48748a	-0.19575706
213	0x3e1b6ec3	0.15178971
214	0x3e1783d1	0.14796378
215	0xbcb2536d	-0.021768296
216	0xbdad11e8	-0.08450681
217	0x3e5dfe1b	0.21678965
218	0x3d681ccf	0.0566681
219	0x3e4c2e05	0.1993943
220	0x3e06e2e1	0.13172485
221	0xbe5ecf78	-0.2175883
222	0x3e1bf04b	0.15228383
223	0xbee7c700	-0.45269012
224	0x3eb8ce2a	0.3609479
225	0xbdea4b9a	-0.11440201
226	0xbcfcf839	-0.03088008
227	0x3df9924d	0.12186108
228	0x3dffff7d	0.124999024
229	0x3d23c094	0.03997858
230	0x3d8b9763	0.06815984
231	0xbd0c1e6f	-0.03420871
232	0xbed02516	-0.40653294
233	0xbe3eca9c	-0.18631977
234	0xbe471a8a	-0.19443718
235	0xbc9be0c3	-0.019028073
236	0x3e96615c	0.29371154
237	0xbd9623af	-0.07331025
238	0xbe3c98a2	-0.184176
239	0xbf09b0fb	-0.53785676
240	0xb9ab3314	-0.00032653718
241	0x3dbd1bbf	0.09233808
242	0x3ea9f829	0.33197144
243	0xbd5c55dd	-0.053792823
244	0xbe5bbe29	-0.21459259
245	0x3e139e28	0.144158
246	0x3e96eeab	0.29478964
247	0x3d84fc2b	0.0649341
248	0xbc7ca97e	-0.015421269
249	0x3d0d199e	0.03444826
250	0xbe891f15	-0.26781526
251	0x3e031d5f	0.12804173
252	0xbf54983d	-0.830448
253	0x3de6f234	0.11276665
254	0xbf159c70	-0.5844183
255	0x3e86ec8e	0.26352352

bias f4 [256]
0	0xbd19773e	-0.037467234
1	0x3e9de1aa	0.3083623
2	0x3e9790d9	0.29602697
3	0x3d676c2f	0.056499656
4	0x3e2e334b	0.17011754
5	0x3ec8a924	0.39191544
6	0x3e3f7fa8	0.1870104
7	0x3e31235e	0.17298648
8	0x3e304112	0.17212322
9	0xbcaf3049	-0.021385329
10	0x3ea073be	0.31338304
11	0x3ed3585e	0.41278356
12	0x3dd1d22e	0.10245167
13	0x3debce0c	0.1151391
14	0x3e55c79f	0.2087693
15	0x3d840524	0.06446293
16	0x3e1a47fc	0.15066522
17	0x3e250324	0.1611448
18	0x3e59d3f2	0.21272257
19	0x3e10bcbf	0.14134501
20	0x3e991fac	0.29906976
21	0x3ed88d18	0.42295146
22	0x3e35f257	0.17768227
23	0x3ec03809	0.3754275
24	0x3dd843c8	0.10559803
25	0x3ca979ae	0.020687904
26	0x3e487e24	0.19579369
27	0x3e9e8a6b	0.3096498
28	0x3e81c1cb	0.25343165
29	0xbd1e860b	-0.038702052
30	0x3e3751a5	0.17902239
31	0x3ddbb92f	0.1072868
32	0x3e7f0fed	0.24908419
33	0x3c84ce01	0.016211512
34	0x3e83eeb3	0.2576805
35	0x3e5729f8	0.21012104
36	0x3d09833f	0.03357243
37	0x3bf26098	0.007396769
38	0xbbffff5f	-0.007812425
39	0x3d30907f	0.043106552
40	0x3f18ba6f	0.59659475
41	0x3ebaf8f9	0.36518076
42	0x3e9db6df	0.30803582
43	0x3f0f3ebb	0.55955094
44	0x3d0970b3	0.033554744
45	0x3d3009eb	0.04297821
46	0x3e67bcc2	0.22630599
47	0x3ed0e261	0.40797713
48	0x3e99c806	0.30035418
49	0x3e2b4424	0.16725212
50	0x3e36c2f6	0.17847809
51	0x3de4d4e2	0.11173417
52	0x3cb27edb	0.021789005
53	0x3e9502ab	0.29103598
54	0x3c142c7d	0.00904381
55	0x3e5e1f94	0.21691734
56	0x3e0389ef	0.12845586
57	0x3edb2300	0.4280014
58	0xbd734c96	-0.05939921
59	0x3ee5f699	0.44914702
60	0x3d12c520	0.035832524
61	0x3e77fa87	0.24216662
62	0xbc896563	-0.016771978
63	0x3ef899ba	0.48554784
64	0x3ec7b766	0.3900711
65	0x3d92be3e	0.07165192
66	0x3e4a4d2b	0.19756
67	0x3e914741	0.28374675
68	0x3e9a4886	0.30133456
69	0x3ec012f7	0.3751447
70	0x3e6cd2bf	0.23127268
71	0x3d847344	0.06467298
72	0x3e1b9d29	0.1519667
73	0x3e5cebe9	0.21574368
74	0x3f109e04	0.5649111
75	0x3ebc5c03	0.3678895
76	0x3e243b9d	0.16038366
77	0x3df77b7f	0.12084102
78	0x3c2b3962	0.010450693
79	0x3edc0f77	0.4298055
80	0x3e3e796d	0.18601008
81	0x3e7dcdec	0.24785584
82	0x3dea2fd6	0.11434905
83	0x3dd56498	0.10419577
84	0x3c88dbfd	0.016706461
85	0xbd5ae761	-0.053443316
86	0x3dcd2f95	0.10018841
87	0xbc0fe234	-0.008781958
88	0x3e87ff24	0.26561844
89	0x3d9dfbdb	0.07714053
90	0x3d84be71	0.06481636
91	0x3e59f5cb	0.21285169
92	0x3c997f1e	0.018737372
93	0xbd8cace3	-0.06868913
94	0x3df91f97	0.121642284
95	0x3d90c3f1	0.07068623
96	0x3c866cc9	0.016409295
97	0x3ebcd866	0.3688385
98	0x3dc034d9	0.0938508
99	0x3e3fcb67	0.18729936
100	0xbd6fff3f	-0.05859303
101	0x3e5147e2	0.20437577
102	0xbdf3c206	-0.119022414
103	0x3dad0d05	0.08449749
104	0xbe1853c4	-0.14875704
105	0x3e9f5f07	0.31127188
106	0x3e314b72	0.17313936
107	0x3cefcd1f	0.029272614
108	0x3e8cec36	0.27523965
109	0x3d88876c	0.06666455
110	0xbbf9ef93	-0.0076274364
111	0xbd3f2c77	-0.046673264
112	0xbd696136	-0.056977473
113	0x3df7517c	0.12076089
114	0x3e6af613	0.22945432
115	0x3da6c1fd	0.08142469
116	0x3e6111e1	0.21979477
117	0x3c6eb06d	0.01456843
118	0x3d9379e9	0.07200987
119	0x3db062fa	0.08612628
120	0xbc5f4ca1	-0.01362911
121	0x3e8e4cab	0.27792868
122	0x3cfe567d	0.0310471
123	0x3e82e6e0	0.2556677
124	0xbd9434fb	-0.07236668
125	0x3dc31d9e	0.095271334
126	0x3d6ab007	0.05729678
127	0x3ecacb67	0.3960831
128	0x3e980712	0.29692894
129	0xbcfaa787	-0.030597461
130	0x3e816829	0.2527478
131	0x3e6ca791	0.23110797
132	0x3db9590e	0.09050189
133	0x3ecf134d	0.40444413
134	0x3e3f33c9	0.18672098
135	0x3e0700d0	0.13183904
136	0x3e6a981e	0.2290959
137	0x3e0f6c2e	0.14006111
138	0x3ecb9209	0.39759853
139	0x3e4a4e21	0.19756366
140	0xbb398aeb	-0.0028311561
141	0x3dd54e33	0.10415306
142	0x3a630d88	0.0008661379
143	0x3db04894	0.08607593
144	0xbcd85f1b	-0.026412537
145	0xbe3b1785	-0.1827069
146	0x3e93bbc1	0.28854182
147	0xbe05a626	-0.13051662
148	0x3e8cf5de	0.27531332
149	0x3e8abf17	0.27098915
150	0x3dc9040f	0.09815227
151	0x3edc3626	0.43010062
152	0x3ee809c9	0.45319965
153	0x3e8bfae1	0.27339843
154	0x3e936706	0.28789538
155	0x3eb41bf4	0.35177577
156	0x3ec697a5	0.3878757
157	0x3d3e3f47	0.046447065
158	0xbc366af8	-0.011133902
159	0x3ebc26b5	0.3674828
160	0x3df7aaac	0.120931
161	0x3e14723a	0.14496699
162	0xbda26242	-0.079288974
163	0x3e040fe2	0.12896684
164	0xbbe54955	-0.0069972672
165	0x3eabad71	0.33530763
166	0x3d9bae0e	0.07601558
167	0x3e066369	0.1312386
168	0x3e0d74cb	0.13814084
169	0xbc6b15fe	-0.014348505
170	0x3e753a73	0.23948078
171	0x3d0c3281	0.03422785
172	0x3e8026cb	0.25029597
173	0xbd0d8ef3	-0.034560155
174	0x3e62afca	0.2213737
175	0x3dbc78ea	0.0920275
176	0x3d846ba1	0.06465841
177	0x3e3bdfad	0.18347044
178	0x3da2bdea	0.079463795
179	0x3e4fe1ce	0.20300981
180	0x3e693132	0.22772673
181	0x3e4dbc93	0.20091467
182	0x3ea1620f	0.31520125
183	0xbc35bdbc	-0.0110925995
184	0x3e8c22b8	0.27370238
185	0x3e158329	0.14600815
186	0x3e92f0b7	0.28699276
187	0x3e773aef	0.24143575
188	0x3e76321e	0.24042556
189	0x3c9633da	0.018335272
190	0x3e81f8c9	0.2538512
191	0x3e90b52b	0.2826322
192	0x3e9bbe62	0.30418688
193	0x3d4a15e4	0.049337283
194	0x3e167e31	0.14696576
195	0x3ea2eff1	0.31823686
196	0x3e2d6a77	0.16935144
197	0xbda9a3a3	-0.08283164
198	0xbd28242d	-0.041050125
199	0x3dc592bb	0.09647127
200	0x3d5e35c4	0.054250494
201	0x3e53c15b	0.20679228
202	0x3e4003d6	0.18751463
203	0x3e6045d9	0.21901645
204	0x3d9586ff	0.07301139
205	0x3dfd2ddf	0.12362265
206	0x3ddc7635	0.10764734
207	0xbdad1bd0	-0.084525704
208	0x3dd69eca	0.10479505
209	0x3e59f0a3	0.21283202
210	0x3d3d365f	0.04619443
211	0x3e35a6a2	0.17739347
212	0x3d8ac3de	0.0677564
213	0x3e5399f7	0.20664202
214	0x3cce87da	0.025211263
215	0x3e2fe598	0.17177427
216	0x3e8db7e3	0.27679357
217	0x3e94c64d	0.2905754
218	0xbda811c3	-0.08206513
219	0x3db97846	0.090561435
220	0x3e0420a5	0.12903078
221	0x3e94077b	0.28911957
222	0x3e5756d2	0.21029213
223	0x3e1d2a2b	0.15348117
224	0xbd0a22d5	-0.033724625
225	0x3ecd2358	0.40066028
226	0x3e714a9d	0.23563619
227	0x3ea04fe1	0.31310943
228	0x3d1bb4fa	0.03801439
229	0x3e61dacc	0.2205612
230	0x3ea96b09	0.33089474
231	0x3e051ba8	0.12998831
232	0x3dc568b9	0.09639115
233	0x3e09a1ee	0.13440678
234	0x3e080bf1	0.13285805
235	0x3e04ca1a	0.1296772
236	0x3e114f8b	0.141905
237	0x3de6e0f2	0.11273374
238	0x3c9f47c8	0.019443408
239	0x3e5041f6	0.20337662
240	0x3e6c2ebd	0.23064704
241	0xbdb7d316	-0.08975808
242	0x3e95d109	0.29261044
243	0x3e0d2240	0.13782597
244	0x3e592681	0.21206094
245	0xbd1c7dd7	-0.038205948
246	0x3e0a9482	0.13533214
247	0x3dcabb9a	0.098990634
248	0xbd00648d	-0.031345893
249	0x3e937070	0.2879672
250	0xbe05a0f5	-0.13049681
251	0x3c2fb828	0.010725059
252	0x3c92ecbe	0.017935153
253	0x3e9dd23a	0.30824453
254	0xbcaa384c	-0.020778798
255	0x3ec6d878	0.38837028

weight f4 [784, 256]
0	0xbed2831a	-0.41115648
1	0x3e7e337f	0.24824332
2	0xbdb429c9	-0.087970324
3	0x3e2c333e	0.16816422
4	0x3c76e6b6	0.015069654
5	0xbde605ae	-0.11231552
6	0xbe38dec6	-0.18053731
7	0xbdeca8ee	-0.11555658
8	0xbe18b615	-0.14913209
9	0xbe1a3174	-0.15057927
10	0xbda6d5e0	-0.08146262
11	0xbe0806ba	-0.13283816
12	0x3dab58fb	0.08366581
13	0xbd7980b1	-0.060913745
14	0xbdb6c3ab	-0.089240395
15	0xbd146e07	-0.036237743
16	0x3c93fb26	0.018064093
17	0xbd5ced2e	-0.05393713
18	0xbd155b08	-0.036463767
19	0x3d809af6	0.062795565
20	0xbe0b84d8	-0.13624895
21	0xbd2770b8	-0.04087898
22	0xbe1426bb	-0.144679
23	0xbde2b29d	-0.11069224
24	0xbac479d3	-0.001498992
25	0xbd809db8	-0.062800825
26	0xbdf174bf	-0.11789846
27	0xbd8cb949	-0.06871278
28	0x3c829560	0.015940368
29	0xbe4789a1	-0.19486095
30	0x3dfdc8f4	0.123918444
31	0xbe54e748	-0.20791352
32	0xbd6a12cf	-0.057146844
33	0x3e011726	0.12606487
34	0xbd1b223d	-0.03787445
35	0x3e308ea9	0.1724192
36	0xbe860c61	-0.2618132
37	0x3c93dfaa	0.018050987
38	0xbe65b64c	-0.22432822
39	0x3e34f867	0.17672883
40	0xbe0407d1	-0.12893607
41	0xbd87272e	-0.0659927
42	0xbdc4c5e4	-0.09608057
43	0xbe1c8fd5	-0.15289243
44	0x3d896bfb	0.06710049
45	0x3e0f8a0f	0.14017509
46	0xbd8f8dca	-0.07009466
47	0xbe425a07	-0.18979655
48	0x3cee36fd	0.029078955
49	0xbeae68b6	-0.34064263
50	0xbe34eb13	-0.17667799
51	0xbe2f7ab6	-0.17136654
52	0xbe2297cd	-0.1587822
53	0xbe4b363d	-0.19844909
54	0x3dc11cf8	0.094293535
55	0xbe19568b	-0.1497442
56	0xbdf8ab11	-0.12142003
57	0xbdd20aea	-0.10255988
58	0xbe1fb655	-0.15596898
59	0xbe3dad8a	-0.18523231
60	0x3e5baf2f	0.21453546
61	0xbe5057ee	-0.20346043
62	0xbddd30ff	-0.10800361
63	0xbe0610fc	-0.13092417
64	0xbe8fc342	-0.28078657
65	0x3e02c0bb	0.12768833
66	0xbd76096f	-0.06006759
67	0xbe1c791a	-0.15280572
68	0x3e50bed2	0.20385292
69	0xbdea467b	-0.11439224
70	0x3c5a2a54	0.013315756
71	0xbe76783c	-0.24069303
72	0xbd41c192	-0.047303744
73	0x3b70aba9	0.0036723411
74	0xbe251d23	-0.16124396
75	0xbe3ef12f	-0.18646692
76	0xbe6eedb8	-0.2333287
77	0xbd12c238	-0.035829753
78	0x3d1e6790	0.038672984
79	0x3ddabf34	0.10681
80	0x3dca9f8c	0.098937124
81	0x3c462a76	0.012095084
82	0xbd8891f5	-0.06668464
83	0xbe34266d	-0.17592783
84	0xbd5223fa	-0.05130384
85	0x3a9dfd23	0.001205359
86	0xbcc49850	-0.02399841
87	0xbe966518	-0.29374003
88	0xbe93ea93	-0.28889903
89	0xbce8e8ec	-0.028431378
90	0x3e0ef677	0.13961206
91	0xbdb0fd59	-0.08642072
92	0xbe835b70	-0.256557
93	0x3b5072e6	0.0031806766
94	0xbd510d20	-0.051037908
95	0xbe5c00c9	-0.21484675
96	0x3e2273a4	0.15864426
97	0xbd0b0f20	-0.03394997
98	0xbe8a0e8d	-0.26964226
99	0xbe5e6e59	-0.21721782
100	0xbe4b96a4	-0.19881684
101	0x3d07d71c	0.03316413
102	0xbe6a3f1e	-0.2287564
103	0xbdf77e7a	-0.1208467
104	0xbe407090	-0.18792939
105	0x3d663cfd	0.056210507
106	0xbe2df4d1	-0.16987921
107	0xbd34e42b	-0.04416291
108	0xbe1b015a	-0.15137234
109	0xbd54fc84	-0.05199863
110	0xbe06a720	-0.1314969
111	0x3e0a2261	0.13489677
112	0x3eaa69f9	0.33283976
113	0xbe50c858	-0.20388925
114	0xbe6a0b85	-0.22855957
115	0xbe5dfe89	-0.21679129
116	0xbe29a465	-0.16566618
117	0xbdfaa6bf	-0.122388355
118	0x3bce5c4d	0.006297624
119	0xbd41cdd4	-0.047315434
120	0x3e254a60	0.16141653
121	0xbde6ab8e	-0.1126319
122	0xbea0c147	-0.3139746
123	0xbd6c3df9	-0.05767629
124	0x3d3c7488	0.04600957
125	0x3d73b9c4	0.05950333
126	0x3e0993c4	0.13435274
127	0xbe0d3cdc	-0.13792747
128	0xbe7a76c8	-0.24459374
129	0xbe15bbbb	-0.14622395
130	0xbdf0fa90	-0.11766541
131	0x3e054b89	0.13017096
132	0x3d5083fb	0.050907116
133	0xbdc8cc17	-0.09804552
134	0xbdf6e0ac	-0.120545715
135	0x3dd00392	0.10156931
136	0x3e395d8d	0.18102093
137	0x3c27fb34	0.010252763
138	0xbdcc40a7	-0.09973269
139	0xbe4b7283	-0.19867902
140	0xbee48d6e	-0.44639152
141	0x3d5cbd18	0.05389127
142	0x3d73ccb4	0.059521392
143	0xbdf37234	-0.11887017
144	0x3e0b5b32	0.13609007
145	0xbc0f7879	-0.00875675
146	0xbe3a332b	-0.18183582
147	0xbda6f26a	-0.081517056
148	0x3d024c0c	0.031810805
149	0xbdecce39	-0.11562771
150	0xbe5f2201	-0.21790315
151	0xbd71dda1	-0.059049252
152	0xbe0bcfe8	-0.13653529
153	0xbd02eb88	-0.0319629
154	0xbd9c42b8	-0.07629913
155	0xbd425def	-0.047452863
156	0xbe0e5dae	-0.13902923
157	0xbd9b3de9	-0.07580168
158	0x3dfc75a9	0.123271294
159	0xbdc04975	-0.09389011
160	0xbe26e946	-0.16299924
161	0xbd335044	-0.04377772
162	0x3d8eaaaa	0.06966145
163	0xb8eb87af	-0.00011230946
164	0xbd9356b0	-0.07194269
165	0xbe37f9b3	-0.17966346
166	0xbdbca568	-0.09211236
167	0xbd0d520d	-0.034502078
168	0x3ea1666f	0.31523463
169	0xbe5581bd	-0.20850272
170	0x3dda9e50	0.10674727
171	0xbf04686b	-0.5172183
172	0xbe2d9259	-0.16950358
173	0xbe8e4afb	-0.2779158
174	0xbe4b706f	-0.19867109
175	0xbd0179cc	-0.031610295
176	0xbcedfdf4	-0.029051758
177	0xbe767c33	-0.24070816
178	0x3e97a2d9	0.2961643
179	0xbe50fd21	-0.20409061
180	0xbda10d16	-0.07863824
181	0xbe018bf5	-0.12651046
182	0xbcfaaee2	-0.030600969
183	0xbe6f8af7	-0.23392855
184	0xbdf7a094	-0.12091175
185	0xbd942b98	-0.07234877
186	0xbe018a12	-0.12650326
187	0xbe5d4008	-0.21606457
188	0xbef141f0	-0.4712062
189	0xbcaeb8ad	-0.021328295
190	0xbd4c996f	-0.049951013
191	0xbeb434d5	-0.35196558
192	0xbcc991d4	-0.02460567
193	0xbcfb8aa2	-0.030705754
194	0x3d35d654	0.044393852
195	0xbe5415de	-0.20711467
196	0x3ddbc0b3	0.10730114
197	0x3ea74a42	0.32673842
198	0x3d349ac7	0.04409292
199	0x3e42bcd5	0.19017346
200	0x3d11336a	0.035449423
201	0xbe0a6df5	-0.13518508
202	0xbf04cd8b	-0.51876134
203	0xbe16dc41	-0.14732458
204	0xbd061ad4	-0.03274043
205	0x3e2d9ae6	0.1695362
206	0xbd890d27	-0.06691962
207	0x3cf272b4	0.02959571
208	0xbd835ec8	-0.064145625
209	0xbe93b461	-0.28848556
210	0xbdf75e97	-0.120785885
211	0x3e478b7b	0.19486801
212	0x3e0f36f0	0.139858
213	0xbe0a2e37	-0.13494192
214	0x3e70123b	0.23444454
215	0xbe565fe4	-0.20935017
216	0xbe51a1ab	-0.20471828
217	0xbc6c05eb	-0.014405708
218	0x3dcba57a	0.099436715
219	0x3c8e5595	0.017374793
220	0xbe47714d	-0.19476815
221	0xbe2ed552	-0.17073563
222	0xbc824952	-0.015904102
223	0xbe99a064	-0.3000518
224	0xbdb88157	-0.090090446
225	0xbe105768	-0.14095843
226	0xbe0b22d9	-0.13587512
227	0xbe76b1b1	-0.24091221
228	0xbea21451	-0.31656125
229	0xbe294c0c	-0.16532916
230	0xbce79d85	-0.028273353
231	0xbe36e2e5	-0.17859991
232	0x3cf9d4f4	0.030497052
233	0xbe24a547	-0.16078673
234	0xbe0f7bb7	-0.14012037
235	0xbd87c45e	-0.06629251
236	0x3d0c8f4a	0.03431634
237	0x3e1ab950	0.15109754
238	0xbe082dc1	-0.13298704
239	0xbd4eca9a	-0.050486185
240	0xbe0ba68b	-0.1363775
241	0xbdae52a2	-0.08511855
242	0xbcc7d3a3	-0.024392908
243	0xbe9ea565	-0.3098556
244	0xbd8211b9	-0.063510366
245	0xbd40e34f	-0.04709178
246	0xbd013940	-0.03154874
247	0x3df93efe	0.12170218
248	0x3e4a455f	0.19753025
249	0x3da67d02	0.08129312
250	0xbcd9d6cc	-0.026591681
251	0xbe5ee111	-0.21765544
252	0xbe874afd	-0.264244
253	0xbe841e06	-0.25804156
254	0xbe0c7157	-0.1371511
255	0xbe2bb288	-0.16767323

bias f4 [784]
0	0xbe9a7469	-0.3016694
1	0xbe0ad6be	-0.1355848
2	0xbe53a9d7	-0.20670258
3	0xbe2c6011	-0.16833521
4	0xbe48a82a	-0.195954
5	0xbe69ed80	-0.22844505
6	0xbe76557a	-0.24056044
7	0xbe44e074	-0.19226247
8	0xbe8699b7	-0.2628915
9	0xbe857d23	-0.26072034
10	0xbe2bc063	-0.16772608
11	0xbe5721d7	-0.21009003
12	0xbe8dfebe	-0.27733415
13	0xbe465168	-0.19366992
14	0xbe0a683a	-0.13516322
15	0xbe338872	-0.17532519
16	0xbd303714	-0.043021277
17	0xbd5c4dc8	-0.053785115
18	0xbe581097	-0.21100079
19	0xbe8a2508	-0.26981378
20	0xbe0d3ef5	-0.13793547
21	0xbdb9f49d	-0.090798594
22	0xbe8fe630	-0.28105307
23	0xbdfaa0f1	-0.122377284
24	0xbe122d83	-0.14275174
25	0xbe4c3aff	-0.1994438
26	0xbe816264	-0.2527038
27	0xbe762ee2	-0.24041322
28	0xbea22331	-0.31667474
29	0xbe2e61e8	-0.17029536
30	0xbe5c7242	-0.21527961
31	0xbe51c75f	-0.2048621
32	0xbe4d8e70	-0.20073867
33	0xbe854c3b	-0.26034722
34	0xbe3eb6d8	-0.18624437
35	0xbe238a58	-0.15970743
36	0xbe8750e9	-0.26428917
37	0xbe2f5ae8	-0.17124522
38	0xbe3d1dfb	-0.18468468
39	0xbe7517bd	-0.23934837
40	0xbe4284ac	-0.18995923
41	0xbe8acf7d	-0.27111426
42	0xbe62abe5	-0.22135885
43	0xbe224759	-0.1584753
44	0xbe24ab1e	-0.16080901
45	0xbe6a1cae	-0.22862503
46	0xbe8019b5	-0.25019613
47	0xbe62850a	-0.22121063
48	0xbe6c8627	-0.2309805
49	0xbde4e3bd	-0.1117625
50	0xbe214c60	-0.15751791
51	0xbe3be94b	-0.18350713
52	0xbe4b3db2	-0.19847754
53	0xbe87a471	-0.26492646
54	0xbe498498	-0.19679487
55	0xbe460716	-0.1933864
56	0xbe8f3ee5	-0.27977672
57	0xbe2e04a9	-0.16993965
58	0xbe247c33	-0.16063003
59	0xbe1b86f0	-0.15188193
60	0xbe5bd4da	-0.21467915
61	0xbe7be426	-0.2459875
62	0xbe884207	-0.26612875
63	0xbe5af196	-0.2138122
64	0xbe889a39	-0.26680163
65	0xbde1ffae	-0.11035095
66	0xbe4d2cc4	-0.20036608
67	0xbe8cf278	-0.2752874
68	0xbe8b4a71	-0.27205232
69	0xbe418754	-0.1889928
70	0xbe192739	-0.14956369
71	0xbe177c7a	-0.14793578
72	0xbd984a68	-0.07436067
73	0xbe5dc29a	-0.21656266
74	0xbe45e764	-0.1932655
75	0xbe2e2358	-0.1700567
76	0xbe9e41e2	-0.3090964
77	0xbe191563	-0.14949565
78	0xbe2f36b3	-0.1711071
79	0xbe17fe30	-0.14843059
80	0xbe2a83e5	-0.16651876
81	0xbe2b4bfb	-0.16728203
82	0xbe2f20be	-0.17102334
83	0xbe599f4b	-0.21252172
84	0xbe38ef88	-0.18060124
85	0xbe896080	-0.26831436
86	0xbe115c88	-0.14195454
87	0xbe6da693	-0.23208074
88	0xbe540fa2	-0.20709088
89	0xbe2d031c	-0.16895717
90	0xbe73b6c2	-0.23800185
91	0xbe19d6a4	-0.15023285
92	0xbe7c60c5	-0.2464629
93	0xbe23d8e0	-0.160007
94	0xbe561bf3	-0.209091
95	0xbe1c2e3c	-0.15252012
96	0xbdecaad8	-0.11556023
97	0xbdbc1b05	-0.09184841
98	0xbdf57f6e	-0.11987196
99	0xbe25775a	-0.1615881
100	0xbe37185a	-0.17880383
101	0xbda61af3	-0.08110609
102	0xbe4e822c	-0.20166844
103	0xbe675466	-0.22590789
104	0xbe526b06	-0.20548639
105	0xbe60f141	-0.21967031
106	0xbe45e205	-0.19324501
107	0xbe5bff05	-0.21484001
108	0xbe096676	-0.13417992
109	0xbe6660b0	-0.22497821
110	0xbe635893	-0.22201757
111	0xbe619294	-0.22028571
112	0xbe567520	-0.20943117
113	0xbe77175a	-0.24130002
114	0xbe7d42a4	-0.24732453
115	0xbe154f30	-0.14580989
116	0xbe612b3a	-0.21989146
117	0xbe212bf8	-0.15739429
118	0xbe5dde9d	-0.21666951
119	0xbe1fc074	-0.15600759
120	0xbe54e323	-0.20789771
121	0xbe854fcc	-0.26037443
122	0xbe56ac9e	-0.20964286
123	0xbe0f0694	-0.13967353
124	0xbdfb0ab2	-0.12257899
125	0xbe4c4239	-0.19947137
126	0xbe5533bf	-0.20820521
127	0xbe1b962a	-0.15194002
128	0xbe18c187	-0.14917575
129	0xbdf0b08e	-0.11752425
130	0xbe3cf196	-0.18451533
131	0xbe2a6ce4	-0.16643101
132	0xbe2a5495	-0.16633828
133	0xbe4a4fec	-0.1975705
134	0xbe2cd78f	-0.16879104
135	0xbe3d706f	-0.18499921
136	0xbe566faa	-0.20941034
137	0xbe585c4e	-0.21128961
138	0xbe59433e	-0.21217057
139	0xbe4d0cb3	-0.20024376
140	0xbe171875	-0.14755423
141	0xbe84cb6c	-0.2593645
142	0xbe3ddc77	-0.18541132
143	0xbe205be8	-0.1566006
144	0xbe858338	-0.26076674
145	0xbe3ff7f2	-0.18746927
146	0xbe368333	-0.17823486
147	0xbe3902de	-0.180675
148	0xbe7cbbea	-0.24681059
149	0xbdb7f574	-0.08982363
150	0xbe0b8f4f	-0.13628887
151	0xbdbffcde	-0.093744025
152	0xbdbc2b99	-0.09188003
153	0xbda956d5	-0.08268515
154	0xbd55f095	-0.05223139
155	0xbc614899	-0.013750219
156	0xbc05230b	-0.008126031
157	0xbce51d04	-0.027967937
158	0xbdcad6a4	-0.09904221
159	0xbda58cf6	-0.08083527
160	0xbe1b95c8	-0.15193856
161	0xbe3c5078	-0.18390071
162	0xbe5aff57	-0.21386467
163	0xbe8d97fd	-0.2765502
164	0xbe1a5bae	-0.15074036
165	0xbe51d313	-0.20490675
166	0xbd81f171	-0.063448794
167	0xbe294aaf	-0.16532396
168	0xbe3e50f0	-0.18585563
169	0xbe2dbfc3	-0.16967683
170	0xbe12c520	-0.1433301
171	0xbe726310	-0.23670602
172	0xbe2ae900	-0.16690445
173	0xbe6d8760	-0.23196173
174	0xbe8a2c7e	-0.2698707
175	0xbe828b8e	-0.25497097
176	0xbe82be92	-0.2553602
177	0xbde47046	-0.11154227
178	0xbe05d6b2	-0.13070181
179	0xbdf02c09	-0.11727149
180	0xbd94552f	-0.0724281
181	0xbcf96d1e	-0.030447539
182	0x3d15b095	0.036545355
183	0x3da3a539	0.07990498
184	0x3d2efa10	0.042718947
185	0x3d85551c	0.06510374
186	0x3d46a6e0	0.04849899
187	0x3bc97bbb	0.006148783
188	0xbded8d9e	-0.11599277
189	0xbd89c28a	-0.067265585
190	0xbe282bdb	-0.1642298
191	0xbdfb055b	-0.12256881
192	0xbe10f775	-0.14156897
193	0xbdcb6b02	-0.099325195
194	0xbe40d72c	-0.18832082
195	0xbe739cad	-0.23790236
196	0xbe109cea	-0.14122358
197	0xbe82b79b	-0.25530705
198	0xbe731d42	-0.2374163
199	0xbe3e52a6	-0.18586215
200	0xbe2b7a15	-0.1674579
201	0xbe84abdd	-0.2591237
202	0xbe1385d0	-0.14406514
203	0xbe902d42	-0.2815953
204	0xbde16a03	-0.11006548
205	0xbe558fe8	-0.20855677
206	0xbd7107ec	-0.058845446
207	0xbdc1cce7	-0.0946291
208	0x3c9e8cdf	0.019354282
209	0x3c130b53	0.008974868
210	0xbc9ee8e5	-0.019398162
211	0x3d4ada5b	0.049524646
212	0x3d42d8f0	0.04757017
213	0x3d32e159	0.04367194
214	0x3d783ff0	0.06060785
215	0x3dcd6f20	0.10030961
216	0xbd86c813	-0.0658113
217	0xbd39af80	-0.045333385
218	0xbdb84ae1	-0.08998657
219	0xbd838261	-0.06421352
220	0xbe05f61d	-0.13082166
221	0xbe1bee98	-0.15227735
222	0xbe86719f	-0.2625856
223	0xbe08b165	-0.1334892
224	0xbe7c399b	-0.2463135
225	0xbe863d08	-0.26218438
226	0xbe88ca55	-0.26716867
227	0xbe2d3707	-0.16915523
228	0xbe4b429f	-0.19849633
229	0xbe3a759a	-0.18208924
230	0xbe768be6	-0.24076805
231	0xbe895b78	-0.26827598
232	0xbe7ad30e	-0.24494573
233	0xbddde1b1	-0.10834063
234	0x3c0b84be	0.008515535
235	0x3c38ec5d	0.011286822
236	0xbd98a4e9	-0.07453329
237	0xbcef7a15	-0.029233018
238	0xbcdd5850	-0.02701965
239	0x3cef88cf	0.02924004
240	0xbbe9a42d	-0.007130167
241	0x3d5ea218	0.054353803
242	0x3c0e1d5b	0.008673991
243	0x3d89df3a	0.0673203
244	0x3cf3ba54	0.029751934
245	0xbd8b6ba3	-0.068076394
246	0xbd6b5e92	-0.057463236
247	0xbdfced92	-0.123500004
248	0xbe18ba78	-0.14914882
249	0xbdfe73d5	-0.12424437
250	0xbe25eb77	-0.16203104
251	0xbe5207e2	-0.2051082
252	0xbe88dd79	-0.2673147
253	0xbe48e5b7	-0.1961888
254	0xbe3a4a96	-0.18192515
255	0xbe24dfad	-0.1610095
